wm_saved_data/experiments/full_sp500_experiment/model/q_network.pt (torch, 87960 bytes, 7 tensors)

0.weight f4 [64, 199]
00000000: 5cfd 5d3d ccff 703d b00b 88bc ea5c 853d
00000010: 4479 7ebc b05d 6a3c b45c 0dbd a685 2a3d
00000020: 78f6 7f3d bd03 55bd b860 7c3d 605f 593c
00000030: d484 563d 104b 1d3c ce01 0c3d ccfb 23bc
00000040: 28d5 5f3d 78ab 2b3c f28c 07bd fc05 943c
00000050: 48c7 05bd 5034 08bc c8dc ebbc 6a9d 403d
00000060: 2233 65bd a0db 05bd b8fa a3bc 8895 2ebd
00000070: 303d db3b e063 8fbd c21c 833d 50a6 76bd
00000080: 042a 603d c848 413c 9a8f bcbc 326d 333d
00000090: 8802 353c 3099 6a3d 40ef fd3b 6024 b7bc
000000a0: 5c07 9c3c 647a 9dbc 0466 f43c 709e 813d
000000b0: 14d8 273d 72df fdbc fe9c 273d 78cf 4f3c
000000c0: 2e74 133d 79f9 30bd bbb6 8fbd 945d e0bc
000000d0: 05b6 5ebd f43f 6e3d a443 a73c 4c8a f03c
000000e0: 64a8 b73c 40a2 a1ba 803c 633d 984d 4ebd
000000f0: 9041 923b 4a2e 46bd 9410 b33c f6fc c7bc
00000100: d0f0 b13c 68f9 71bc 00d2 703d 7818 2cbd
00000110: 342b 2dbd e22d 2dbd 8094 823d 2886 c13c
00000120: ceb2 8b3d 16a0 6fbd dcff 8fbd 562a 63bd
00000130: 0a52 43bd 8c36 eb3c b0f0 cf3c ec43 713d
00000140: b6f2 15bd b6f0 45bd b60e 1a3d 50ba eabc
00000150: 9a39 303d dccd 89bc 1419 263d 4299 61bd
00000160: 6a87 12bd e40b b13c 0889 753c f80e 94bc
00000170: c812 2d3d 4a63 453d 488f 52bd 4403 1bbd
00000180: 4cef 843d c8f3 c3bc 86df cdbc 6b79 8cbd
00000190: 7b47 26bd 9810 913c 0c4d 19bc 40c4 52bd
000001a0: 40f2 d93a 8756 46bd aa56 76bd 9fe3 1fbd
000001b0: e51f 7ebd bee1 38bd 401f 913d 805d 5b3c
000001c0: 00f4 b23c f367 87bd 08b3 3ebd 664b c1bc
000001d0: 409d 353c f17d 7fbd f236 fabc fbd3 2dbd
000001e0: 00fe 4d39 0a16 d8bc f0f6 a0bb 49c1 44bd
000001f0: d64c 47bd 2d65 29bd 04c7 c6bc 7e2c 65bd
00000200: c874 733d 9480 66bc a4d2 793d c8f0 b43c
00000210: c2df 75bd 12f0 483d e6c7 9fbc 769a debc
00000220: 7304 71bd c454 90bd 1c26 a63c 1cb5 7dbc
00000230: 0016 e23c 3649 6ebd ee91 573d 6023 55bd
00000240: 548c 48bc 7896 723c d0e5 153d a868 6a3d
00000250: 8440 843d 283b 66bd a825 923c e2c7 f9bc
00000260: e08c febb 7354 59bd c83c 843d b31b 55bd
00000270: 9a2e 1b3d 2016 cc3c f8b4 bc3c 16fb 1cbd
00000280: e6f5 833d 9039 7f3c 1068 153c 0fe1 7fbd
00000290: 14c7 f33c 143d 2ebc 1a05 05bd dc66 793d
000002a0: 4478 813c e9a5 20bd 1bf6 12bd 20dc 5dbb
000002b0: e01f 223d 7664 94bc bbab 25bd a4dc c6bc
000002c0: 40eb 58bd 1c1a cf3c a0bf 603d 60ad 88bd
000002d0: 20df 863c 16ff 153d 009a 523c 9cce cebc
000002e0: c88c 173d 3a96 183d 3425 d93c 9816 4cbc
000002f0: 32c6 99bc 8080 f83b e82b 4dbc c60d adbc
00000300: 4299 393d 8888 793d 10f5 e5bb 3605 82bc
00000310: 4095 873a b0b1 8abb 4c9c 8b3c 6cbc a23c
00000320: 14dc 83bd 504e d6bc d084 743d 7838 e23c
00000330: 2011 67bb f00e 2fbd 70a4 31bd e20b 82bd
00000340: 9a4a bdbc 2c1c c43c 6c23 393d b20e 063d
00000350: 7a54 80bd 389c 2ebd 0c4b 37bc 4e70 8c3d
00000360: 7802 283c 6863 96bc 3840 f03c 0e2f ddbc
00000370: 89ef 3bbd aced 533d b306 04bd 0cd4 68bc
00000380: af6c 90bd f253 423d 2efc 5b3d 04a4 d33c
00000390: 7e75 4abd 6648 8fbd 8cd2 6bbd 1485 583d
000003a0: 0467 0b3d 5c56 743d 141c 183d 7cf9 923c
000003b0: 00fa 35ba 9dd1 5cbd 3ac5 78bd f8ca 87bd
000003c0: 0cb9 ed3c 6d8e 0ebd b0bd 69bc 371a 27bd
000003d0: dca3 53bc 285d 4cbd 6bb9 3dbd 2ca1 c03c
000003e0: 2896 acbc 1840 333d 724c babc 36ff 54bd
000003f0: f0eb 4cbc 0ac0 0cbd 3eaa b1bc ab35 8abd
0.0541967 0.058837697 -0.016607136 0.065118626 -0.015531842 0.014304563 -0.034512237 0.041631363
0.06249091 -0.05200552 0.061615676 0.013267368 0.05237277 0.009600416 0.03418141 -0.0100087635
0.05464664 0.010477893 -0.0330934 0.01806926 -0.032660753 -0.0083132535 -0.0287918 0.04702512
-0.055956967 -0.032680154 -0.020017013 -0.042623073 0.0066906437 -0.070014715 0.064019695 -0.0602172
0.05472757 0.011797138 -0.023017693 0.04380531 0.011047967 0.057274997 0.007749468 -0.022356212
0.019046478 -0.0192234 0.029833801 0.06329048 0.040977553 -0.030990336 0.040921204 0.012683742
0.03599947 -0.043206666 -0.07017275 -0.027388372 -0.054372806 0.05816646 0.020417996 0.02936282
0.022419162 -0.001233168 0.05547762 -0.050366968 0.004463382 -0.04838399 0.021858491 -0.024412613
0.021721274 -0.014768936 0.05879402 -0.042015523 -0.04227753 -0.042280085 0.063759804 0.023623541
0.06821214 -0.05850228 -0.07031223 -0.055460297 -0.04768566 0.028712533 0.025383323 0.058902666
-0.03660842 -0.048325263 0.037611686 -0.028653294 0.043023683 -0.016821794 0.04055126 -0.0550778
-0.035773672 0.021612115 0.014986284 -0.018073544 0.04225424 0.048190393 -0.051406175 -0.03784491
0.06490955 -0.023919955 -0.025130998 -0.06859096 -0.040595513 0.017708108 -0.009356748 -0.05145669
0.0016627982 -0.048422363 -0.060141243 -0.039035436 -0.062042136 -0.04513716 0.070860386 0.013388991
0.021844864 -0.066116236 -0.046557456 -0.023595523 0.011084855 -0.062375966 -0.030543778 -0.04243849
0.00019644946 -0.026377697 -0.0049122497 -0.048035894 -0.04865726 -0.041356254 -0.02426482 -0.055950634
0.059437543 -0.014068741 0.0609919 0.02208747 -0.060027845 0.049057074 -0.019504499 -0.027173262
-0.058842134 -0.07047418 0.020281844 -0.015485074 0.027598381 -0.05817529 0.052629404 -0.05203569
-0.012240488 0.014806382 0.03659612 0.057228714 0.06457618 -0.05620876 0.017840222 -0.03049082
-0.0077682585 -0.053059053 0.064569056 -0.05202837 0.03788624 0.024912894 0.023035511 -0.03832539
0.06443386 0.015577689 0.009119049 -0.062470492 0.029758014 -0.010634679 -0.03247557 0.06088911
0.015804417 -0.039220724 -0.035879236 -0.0033853129 0.03958118 -0.01811431 -0.040446978 -0.024275132
-0.052958727 0.025281005 0.054870248 -0.06673694 0.016463816 0.036620222 0.012854099 -0.025245003
0.036999494 0.037252642 0.026506998 -0.012456559 -0.018771265 0.007583678 -0.012522675 -0.021124732
0.045312174 0.060921222 -0.007017739 -0.015871625 0.0010344163 -0.004232608 0.017042302 0.019865237
-0.06438461 -0.02616039 0.059696972 0.027614817 -0.003525801 -0.042738855 -0.04336971 -0.06349923
-0.023106862 0.023939215 0.045199797 0.03272886 -0.062661126 -0.04262945 -0.011187326 0.06857358
0.010254495 -0.018357947 0.029327497 -0.026999976 -0.045882735 0.051740333 -0.03223295 -0.014210712
-0.0705198 0.047443338 0.053707294 0.025835045 -0.049428456 -0.06996231 -0.05757384 0.05286129
0.03403379 0.05965267 0.037136152 0.017941229 -0.0006941855 -0.05391084 -0.060734965 -0.0663051
0.029018901 -0.034803797 -0.014266416 -0.040796485 -0.012917485 -0.04989353 -0.046319406 0.023514353
-0.021067694 0.043762296 -0.02274153 -0.0520012 -0.012507424 -0.03436283 -0.021687623 -0.067485176

0.bias f4 [64]
00000000: f44a 833d 5a53 82bc c05f 943b 20df 3fbb
00000010: 2271 8d3d d010 013c 7ce5 8d3c a8b2 c6bc
00000020: 00f8 62ba 9ffa 19bd 2091 693b 9029 21bc
00000030: 2878 583c b8cc 613c ee91 6dbd 28fc 413d
00000040: beb6 1f3d a088 4c3d c6d5 553d 7cd6 953c
00000050: 0eba 1e3d 521e 0f3d 0e1f 2d3d 42da 2ebd
00000060: 6292 093d 101d babb a89e e03c f876 d53c
00000070: 606d 58bd 5316 04bd d4b4 4ebd 2264 9abc
00000080: 286d bb3c 5074 873c f08a 663d 91a2 51bd
00000090: ecb9 b53c 307a 6d3d 08af 5fbd 5f8f 5abd
000000a0: 28c2 8b3c e0b1 ebbc 7482 943c 7b56 0cbd
000000b0: 70a0 153c 2a1c 76bd 7c57 673d f667 39bd
000000c0: 4b39 85bd 1161 16bd c054 c53a 146e 883d
000000d0: 38d5 723c a8d5 72bc b2fb 50bd 9688 043d
000000e0: e062 a93b e02b a8bc 52d9 a2bc c04a 2a3c
000000f0: f4f5 2a3d 869d 2ebd 3a43 8cbc feee 083d
0.064107805 -0.015908886 0.004528016 -0.002927728 0.06906344 0.007877544 0.01732134 -0.024255112
-0.00086581707 -0.037592527 0.003563948 -0.009836569 0.013212241 0.013781719 -0.058000498 0.047359616
0.038992636 0.049934983 0.052205823 0.01829075 0.038751654 0.034941025 0.042265944 -0.042688616
0.033586867 -0.005679734 0.027419403 0.026057705 -0.052838683 -0.032247853 -0.05046542 -0.018846575
0.022879198 0.016534954 0.056284845 -0.051180426 0.022183381 0.057977855 -0.054610282 -0.053359386
0.017060354 -0.02877134 0.018128611 -0.03426216 0.00913249 -0.060085453 0.056479916 -0.04526516
-0.065050684 -0.036713663 0.0015055165 0.06661621 0.014821343 -0.014821447 -0.051021285 0.03235682
0.0051692575 -0.020528734 -0.019879017 0.010393798 0.041738465 -0.042630695 -0.0171219 0.033431046

3.weight f4 [64, 64]
00000000: 2059 afbd 4070 4abb f454 cf3d fac1 b23d
00000010: 4864 cdbd 3c4e 70bd 98c0 a43c 1eb4 a13d
00000020: c0ad 4dbd 6276 e8bd c03d 98bb ee92 a03d
00000030: 12a4 83bd f2c0 ebbd 500a 0d3c 4acc d43d
00000040: 9886 cfbd e05a dc3c d024 a23d c098 763b
00000050: 4e33 89bd 8841 39bd aa61 a8bd b0db 143c
00000060: d4ca 5ebd c03e 8a3b 8063 e1bc 644f afbd
00000070: 90e4 f73d 303d f13c a43e 7d3d 5e95 973d
00000080: 2c46 4e3d 084d f2bc a022 1dbd 3427 8dbd
00000090: debc e3bd 6478 c3bd 84fc 42bd 0a24 f13d
000000a0: 0e4b f4bd 2a3e a1bd ac24 c7bd 1a5f b3bd
000000b0: 4459 d13d 3e7e cabd 362e b7bd 12c0 95bd
000000c0: d442 093d 200c 20bd 8675 aabd 889f d33d
000000d0: 8806 9d3c e2e2 babd e429 3fbd b09e 9d3d
000000e0: 7ce1 393d 0619 a3bd 4e11 82bd 34d4 48bd
000000f0: 5491 433d c44c cdbd d44f ef3d 9018 483c
00000100: dc6a 4b3d e0f9 163d 9646 c73d 3068 27bd
00000110: 9476 41bd 76fb a6bd f46f d13d d086 25bc
00000120: 00be ffba 2c96 e13d e015 01bd 1ccb 2bbd
00000130: 18c5 55bd b811 933d f03c 783c 96c4 88bd
00000140: 5a38 a83d 549c 473d 089a eabc 3830 eb3c
00000150: 0c05 e8bd dae9 b5bd 38d5 3bbd 3495 763d
00000160: d07e dfbc 48ca ba3d 9eca eebd 4241 ba3d
00000170: 6c85 f7bd 2ce2 2fbd cec8 ea3d 801d 2bbd
00000180: 8843 5fbd f44c 8a3d 9627 89bd 583d d43c
00000190: 7caf 37bd c4a3 483d 74f8 9cbd 0ef9 85bd
000001a0: 200f aabd 58a0 b5bc 7a32 fe3d 2c30 933d
000001b0: a623 cbbd 6eb6 823d 0c7d ea3d ea58 fd3d
000001c0: 80fd 4b3c f0aa 083d 04cd b93d f457 f63d
000001d0: a0f4 8b3b 6819 b5bc 42cb cf3d 408e 09bd
000001e0: 5608 cc3d fea0 d83d acad 0e3d c61e cebd
000001f0: 20de c73d e88c 743d 48ec f53c 10bb dd3c
00000200: 4ced 703d fe23 973d dee0 a7bd a8af cabd
00000210: d698 843d 981c 55bd 8cdc e0bd 7ade d53d
00000220: 8c6d c6bd 40dd 2ebd 3ace a0bd 7c0d de3d
00000230: 50c1 84bc c2d2 85bd 12bf d53d 1442 ee3d
00000240: cab6 873d 8a86 c83d 0c85 e6bd 305c e7bd
00000250: 7ae5 8b3d 90ea e5bc 84b4 593d c6e7 ed3d
00000260: e0f4 e9bc e002 88bd cedd ef3d 6472 75bd
00000270: 96b0 92bd 9671 cd3d 8065 a8bb 64b7 79bd
00000280: 489c 363d 7c5d 81bd 204a 953b 98ae c9bd
00000290: 7030 f7bc 7e9a c63d 9082 933c 90b6 8abc
000002a0: 0a22 c23d 1ea6 8a3d 8ea9 8f3d bcf3 723d
000002b0: bc31 2fbd 9aea e3bd a298 97bd ac2a 98bd
000002c0: 9894 0e3d fe4b cd3d 60a5 ec3d e0fe cc3d
000002d0: 584c 913c d84d b03d 2091 cd3b 18cd 6d3d
000002e0: 2679 a9bd 6c96 f63d 00b2 6c3d 00c0 4039
000002f0: 7445 4bbd a058 b33c c0ed 6bbc 1ab3 a5bd
00000300: d29b 9ebd 283b 4cbd c010 eb3c f410 a5bd
00000310: fc14 8d3d 2efe 8cbd a0e9 993d 804b 8d3b
00000320: 0074 6139 304a 8a3c 0020 77ba 180f 7d3d
00000330: 70c8 23bc a4c3 34bd a080 553c 70e5 95bd
00000340: 2cf0 4c3d 2002 4e3c 7c23 813d e891 b3bc
00000350: 001d 39ba 94cc 73bd 20d9 65bd 00a3 4a3b
00000360: 2c0c 833d b8b6 41bd d22f c93d 70dc 2cbd
00000370: d082 d2bc ae22 cd3d 88dd b9bc c03a 8b3d
00000380: 50a7 49bc 422a 983d 302e 853c d842 71bd
00000390: c4a2 a8bd b8f7 973d f8a3 fb3c 180a 9fbc
000003a0: a0a3 c3bc 8887 54bd fe50 b1bd 302b e33c
000003b0: e4ab d9bd 0064 d9ba 94f0 b63d 8498 693d
000003c0: cc4e 8a3d 1846 bd3c 6c31 8fbd 3880 823d
000003d0: 82c5 c73d f08f 513d 1e50 b23d b4b4 cebd
000003e0: 68c3 debd e026 edbc 40b9 063d 287b a43d
000003f0: 5451 16bd 14a6 62bd 241c a53d 800e 7bbb
-0.08561921 -0.003088966 0.101236254 0.08728404 -0.10028893 -0.05866836 0.020111367 0.07895683
-0.05021453 -0.11350705 -0.004646033 0.078405246 -0.06427778 -0.11511411 0.008608416 0.103905275
-0.101330936 0.026898801 0.07917178 0.0037627667 -0.06699239 -0.04522851 -0.08221753 0.009085581
-0.05439265 0.004218906 -0.027513266 -0.085600644 0.12104142 0.029448122 0.061827317 0.074015364
0.05035989 -0.029577747 -0.0383631 -0.06892243 -0.11120008 -0.09544447 -0.0476041 0.11774452
-0.11928378 -0.07873185 -0.097237915 -0.087583736 0.10222104 -0.0988736 -0.08944361 -0.07312025
0.033510998 -0.039074063 -0.08323197 0.103331625 0.019168153 -0.09125306 -0.04667081 0.07696283
0.045381054 -0.07963757 -0.06350957 -0.049030498 0.047746018 -0.100244075 0.11685148 0.012212887
0.049662456 0.036859393 0.0973026 -0.040870845 -0.047232226 -0.08153431 0.102264315 -0.010102943
-0.001951158 0.11014971 -0.031515002 -0.041941747 -0.052189916 0.07181114 0.015151247 -0.06678121
0.08213873 0.04873307 -0.028637901 0.028709516 -0.113290876 -0.08882494 -0.045857638 0.060200885
-0.027282149 0.09120613 -0.1165974 0.09094478 -0.12085995 -0.042940304 0.11464082 -0.04177618
-0.054507762 0.06752959 -0.066970035 0.025908157 -0.04484509 0.048984304 -0.07664576 -0.06541644
-0.08303666 -0.022171184 0.124119714 0.071869224 -0.09918909 0.06382452 0.11449632 0.12370475
0.012450576 0.033366144 0.09072307 0.120284945 0.004271105 -0.022106841 0.1014619 -0.033582926
0.099625275 0.10577582 0.034833595 -0.10064463 0.09759164 0.05970469 0.030019894 0.027066737
0.058820054 0.07379912 -0.08197187 -0.09896785 0.06474464 -0.052029222 -0.10979566 0.10442825
-0.09688863 -0.04269147 -0.078518346 0.10842416 -0.01620546 -0.065343395 0.104368344 0.11633697
0.06626661 0.09791286 -0.112558454 -0.1129688 0.068308786 -0.02806595 0.05315067 0.11616473
-0.028559148 -0.06641173 0.11712228 -0.059923545 -0.07162587 0.100314304 -0.005139053 -0.06096591
0.044582635 -0.06316659 0.0045559555 -0.09847754 -0.030174464 0.09697436 0.018006593 -0.016932756
0.09479149 0.067699656 0.07014762 0.059314474 -0.04277204 -0.11128731 -0.07402159 -0.07430014
0.03480968 0.1002426 0.1155498 0.10009551 0.017736599 0.086085975 0.0062734038 0.05805692
-0.0827506 0.120404094 0.05778694 0.00018382072 -0.049626783 0.021892846 -0.014399946 -0.080908015
-0.07744564 -0.049861103 0.02869451 -0.08059874 0.06888768 -0.068844184 0.075152636 0.004311979
0.00021500885 0.016881078 -0.00094270706 0.061781973 -0.0099965185 -0.04413189 0.013031155 -0.07319152
0.050033733 0.012573749 0.06305596 -0.02192016 -0.0007061511 -0.059521273 -0.05611527 0.003091991
0.06398806 -0.047293395 0.09823574 -0.042202413 -0.025697142 0.1001638 -0.022688642 0.06798315
-0.012307957 0.07429935 0.016257375 -0.058901638 -0.0823417 0.074202955 0.030717835 -0.019413993
-0.023881733 -0.051887065 -0.08658026 0.027730554 -0.10628489 -0.0016585588 0.089326054 0.057030216
0.067533106 0.023104712 -0.06991848 0.06372112 0.097544685 0.05116266 0.087066874 -0.1009306
-0.108771145 -0.028949201 0.032891512 0.08031303 -0.036698654 -0.055334166 0.08062008 -0.0038308203

3.bias f4 [64]
00000000: e632 dabd 8043 e23d 621b bdbd bcfe 59bd
00000010: d03b a3bc 0032 41ba 904a 6abc 6079 be3d
00000020: fc8a bf3d 1cc6 e3bd 9483 edbd e886 fabd
00000030: 900b d53d 9064 78bc 246f 7dbd e4e3 a8bd
00000040: c0d5 853c e47c 123d 44e3 923d aea0 ce3d
00000050: c09c e33d e2aa aabd 207f d8bb 48c4 a2bd
00000060: a8bc 38bd 00ab 6b3b bc8d 8f3d 64d7 65bd
00000070: 2054 90bd 2ca5 07bd d8a7 533d 40c3 633b
00000080: 74d5 bf3d 186e e6bd 7417 3a3d 68e2 c13d
00000090: cc41 a13d 04c5 debd ccde aabd 0057 f23a
000000a0: 004f 1b3a e480 983d 0acb d03d a0ec 06bc
000000b0: 8070 16bd 5692 8b3d def7 a5bd c493 69bd
000000c0: b000 7c3c 6853 acbc 58be 9a3d 080a cbbc
000000d0: 708e 593c e86e 113d 401a 2fbc 8ca0 24bd
000000e0: b265 9f3d 2aaa 8e3d 0055 9cbc 0ee8 a3bd
000000f0: 30e0 27bd cc17 b13d 5cd2 953d 90f7 26bd
-0.10654239 0.11048031 -0.092337385 -0.05322145 -0.019925982 -0.00073698163 -0.014300004 0.09300494
0.09352681 -0.11121771 -0.11597362 -0.122327626 0.10402596 -0.015160695 -0.06187357 -0.08246592
0.016337276 0.035763636 0.07172254 0.10089241 0.11113882 -0.083333746 -0.0066069514 -0.07947594
-0.04510179 0.0035960078 0.070094556 -0.056113616 -0.070472956 -0.033116505 0.05167374 0.003475383
0.09366885 -0.112514675 0.045432523 0.09467012 0.07873878 -0.108774215 -0.083432764 0.0018489063
0.00059245527 0.07446459 0.10194977 -0.008235127 -0.036728382 0.06815021 -0.081039175 -0.057025686
0.015381023 -0.021035865 0.075558364 -0.024785057 0.013278589 0.03550616 -0.010687411 -0.040192172
0.07783069 0.0696605 -0.0190835 -0.08003245 -0.040985286 0.08647117 0.073155135 -0.040763438

6.weight f4 [64, 64]
00000000: aaf3 8b3d 404d 71bc 80f6 efbb 14d0 70bd
00000010: 0082 6f3b 48ff d5bc 3850 013d ba7a f3bd
00000020: 80be f4bb 4c2d c8bd aade edbd 38d1 fdbd
00000030: d095 a4bc 3856 bf3c 40de 553c 400f f13c
00000040: cce8 5bbd 0e8d a9bd a88d ddbc ba26 c0bd
00000050: d068 7fbc e0f1 d63c 38df 8e3c 6088 e8bd
00000060: 4e1b f33d e885 dc3d 9058 65bd 060d dabd
00000070: d084 953c 0008 e73c 34e4 08bd 7c35 6bbd
00000080: 3084 1a3c 52cd 9bbd d825 86bd 80ca 233d
00000090: 6098 673c 0097 4e3d d07f d83d 007f 9fba
000000a0: ac3f 2e3d 64c2 b63d 6441 a0bd bc88 aa3d
000000b0: 6a77 af3d c488 43bd 9217 c83d 2cbc 6abd
000000c0: 9054 74bd f48c b73d e882 6d3d b08f 13bc
000000d0: c838 cabd 2006 923d a06b fb3c 8ad3 98bd
000000e0: 604d 98bb 2ef3 b83d f031 583d c06a 6bbd
000000f0: 0056 afba 38f7 34bd 62f9 a83d 284a 703d
00000100: 48a2 97bc a00b 70bc ae76 babd d09e e2bc
00000110: 1001 7b3d 2a86 f5bd 78b1 823c f892 f33d
00000120: e060 5c3d 5054 7e3d bc92 0abd e0b9 2cbc
00000130: da98 dabd c8c7 77bd 10a5 003d 30c7 2e3d
00000140: 64f1 963d 6a39 90bd f408 133d 145f 8dbd
00000150: 58c4 bcbd 7057 44bd f61a aebd 302e c23c
00000160: c840 a13c d24b a43d deaf 853d 38a0 c73c
00000170: 208f 453d 68df 1c3d fa13 f2bd b097 6cbd
00000180: c400 d1bd d86e 94bd 382f cd3c 3068 f13d
00000190: cc3f b13d c875 50bd a0f7 ed3c 442f b03d
000001a0: 805d d53c ac5b d1bd 801a 7b3c 9084 503d
000001b0: c0a5 a73c 52d4 e93d 5ca3 d53d 4a0b 8fbd
000001c0: 78a2 c23d e61c e5bd 7a55 91bd d098 4f3d
000001d0: c094 783b 4214 dd3d 9650 983d 0025 dabc
000001e0: 2ecf f43d dab8 b7bd 20d6 be3c 9467 233d
000001f0: 3a1e c83d ae78 fa3d a8ab 793d 642c 64bd
00000200: 0cd8 cd3d 463e b03d c076 21bb 9ec7 b73d
00000210: 9821 a33c 2017 32bc b42e 1e3d 002c b739
00000220: d449 10bd e0a6 943c 0055 5aba 22e2 afbd
00000230: e496 bbbd 703d 283d 5060 47bd 805a 483b
00000240: fa12 e23d 60dc bc3d 283a 8e3d 1c52 883d
00000250: 1a58 ad3d aead abbd d637 ee3d 62c4 bcbd
00000260: e4e3 a5bd 5cbc 51bd 7c34 fa3d 864d 8f3d
00000270: 6880 0f3d ac6b 943d 487f f4bd 302b f4bd
00000280: d084 1f3d 34ff 0bbd f804 753d 70b0 b5bd
00000290: 6861 f23d 9053 dfbd ee78 823d 66de 863d
000002a0: 2c49 89bd 5438 e23d 0c65 853d 30c2 69bd
000002b0: 5ca1 67bd 06ea c33d e039 fcbc 40a8 063c
000002c0: 28af 6a3d f8e3 6e3d 3030 80bd b6b5 c03d
000002d0: 3c45 1b3d a0d8 243d 2ce8 6dbd 74cf 663d
000002e0: d047 7ebc fc89 b53d 0244 833d da2f b93d
000002f0: f009 8bbc e261 a63d 28f1 c43d 2836 e33c
00000300: 602d 01bc 184a a7bd 5e21 84bd d674 933d
00000310: 78ec 9cbd e0c9 7bbd a691 823d ca1a 82bd
00000320: ce03 c6bd 8892 e33c 48f9 5c3d fc0e e8bd
00000330: 40ea 823c 3a6b c5bd fc03 583d bc0b 8c3d
00000340: c048 2c3d 20ff f93d 10be c6bc 28ab 4bbd
00000350: 5886 0a3d 84ac 193d 60ce 64bd 3083 a8bd
00000360: f0e2 1bbd 3860 543d b85a 583d f8bb 62bd
00000370: a485 d83d ca44 bebd e0af 6dbc 2813 fa3c
00000380: fa65 b8bd aefe e83d 88a5 7bbd 5898 973d
00000390: 40f7 a43b a8b9 8fbd f44d ef3d 60eb 63bc
000003a0: 2045 b63c 80c9 f03d f013 f1bd 20fb cd3d
000003b0: 2caa 7cbd 80c7 cfbd 0463 8e3d 48a8 1cbd
000003c0: ce51 ccbd 3005 7bbd 3c7b a53d 645c 603d
000003d0: 401d c9bb 3a78 833d 4868 cb3c 72ad bfbd
000003e0: 58af c43c b049 b63d 10ec 3fbc b006 6abc
000003f0: 1c63 fb3d 1862 12bd d0a0 ee3d 6e25 e03d
0.068335846 -0.0147278905 -0.0073230863 -0.05879219 0.0036545992 -0.026122704 0.031570643 -0.118886426
-0.0074689984 -0.09774265 -0.116147354 -0.12393421 -0.020090967 0.023356542 0.013053477 0.029426217
-0.05368881 -0.08278857 -0.027045086 -0.093823865 -0.015588954 0.026238382 0.017440423 -0.113541365
0.11870442 0.10767728 -0.055992663 -0.10647015 0.018251806 0.028202057 -0.033420756 -0.057424054
0.00943093 -0.07607521 -0.06550187 0.03998804 0.01413545 0.050436974 0.10571253 -0.0012168586
0.04254119 0.08923796 -0.07824972 0.08326861 0.08567698 -0.04773785 0.09770121 -0.05730836
-0.059650958 0.089624316 0.05798617 -0.009006426 -0.098741114 0.071300745 0.030690968 -0.07462223
-0.0046478957 0.09030758 0.052782 -0.05747485 -0.001337707 -0.04418108 0.08250691 0.05866447
-0.018509999 -0.014651209 -0.091046676 -0.027663618 0.06128031 -0.119884804 0.015953764 0.118932664
0.053803325 0.062092125 -0.033831343 -0.010542363 -0.10673685 -0.06049326 0.031407416 0.04267043
0.0737026 -0.07042201 0.03589721 -0.069029 -0.09217137 -0.04793495 -0.08501236 0.023703665
0.01968421 0.08022274 0.06527685 0.02436839 0.048232198 0.038298994 -0.118202165 -0.057761848
-0.10205224 -0.07247704 0.02504693 0.1178745 0.086547464 -0.050893575 0.02904874 0.08602765
0.02604556 -0.10222563 0.015326142 0.05090767 0.020464778 0.1141745 0.10431549 -0.06984575
0.09503645 -0.111871526 -0.070963815 0.050682843 0.0037930459 0.107948795 0.074372455 -0.026628971
0.11953579 -0.089708045 0.023295462 0.0398937 0.0977139 0.12230049 0.06095472 -0.055706397
0.10050973 0.08605628 -0.002463743 0.08973621 0.01991348 -0.010869771 0.03861876 0.00034937263
-0.035226658 0.018145978 -0.0008328706 -0.08588053 -0.091596395 0.041074216 -0.048675835 0.003057152
0.11038776 0.09221721 0.06944686 0.06656286 0.0846407 -0.08382736 0.116317436 -0.092171445
-0.08100107 -0.051205024 0.12217042 0.06997208 0.035034567 0.07247099 -0.119383395 -0.119223
0.03894502 -0.034178928 0.05981919 -0.088715434 0.11834985 -0.1090461 0.06370722 0.06585388
-0.067034096 0.110459 0.06513414 -0.057069957 -0.05655037 0.09566121 -0.030789316 0.008218825
0.05729595 0.058322877 -0.06259191 0.094096586 0.037907824 0.040245652 -0.058082744 0.056350186
-0.015520051 0.08864209 0.06409456 0.0904233 -0.016972512 0.081241384 0.096163094 0.027735785
-0.007884353 -0.08168429 -0.06451677 0.07200019 -0.0766229 -0.06147182 0.063754365 -0.06352766
-0.096686944 0.027779832 0.05394867 -0.11330983 0.01598084 -0.096395925 0.052738175 0.06838176
0.042061567 0.12206864 -0.02426055 -0.049723774 0.033819526 0.03751804 -0.055860877 -0.08228147
-0.03805822 0.051849574 0.05282089 -0.055355042 0.10572365 -0.09290464 -0.014507264 0.030526713
-0.090038255 0.11376701 -0.06143716 0.07402104 0.0050343573 -0.07017833 0.1168479 -0.013911098
0.022249758 0.11757183 -0.11771381 0.10057664 -0.061685726 -0.101454735 0.069524795 -0.038246423
-0.099765405 -0.061284244 0.08080146 0.05477561 -0.00613752 0.06419416 0.024829999 -0.09359254
0.024009392 0.089007735 -0.0117139965 -0.014283821 0.12274763 -0.03573808 0.11651766 0.10944639

6.bias f4 [64]
00000000: 6060 f4bc c687 cfbd a8cd c23d b627 ebbd
00000010: a03a b73c 76d4 dc3d 6cab 7ebd 40a6 12bb
00000020: 1c2d fe3d 22f7 da3d 6681 b73d 20e7 b7bc
00000030: de38 973d 94bb 4d3d 60b7 de3b 2838 ec3d
00000040: 4072 113d d00f a03d 1cc4 c1bd 4432 1a3d
00000050: 90cc ebbd b01b ab3c 90a6 093d 76da 973d
00000060: 4a29 883d d425 64bd 9439 983d 2274 ffbd
00000070: e6fd d43d c0f9 753d 6831 9dbc 206b 163d
00000080: 0013 8d3d 8e4d cdbd 0426 a63d f8d3 183d
00000090: 7c27 f93d 8072 b43b 6081 4c3c 407c eb3c
000000a0: ea0d cf3d 5c3d d5bd d88b 8d3d 6c56 933d
000000b0: 2020 25bc 260d aebd e6aa c53d 24c7 9b3d
000000c0: 1846 edbc b0f2 b13c 98cc 1cbd 98b8 66bd
000000d0: 4c4b fe3d 8c15 4e3d b05c 023c ecbb a23d
000000e0: 3450 ab3d 5af7 883d 84ec 633d c079 bfbd
000000f0: 9412 4dbd bcc9 d43d 7ccd 1b3d c4aa 0c3d
-0.029831111 -0.101333186 0.09511882 -0.11482184 0.022366822 0.10782711 -0.0621752 -0.0022376925
0.12410948 0.10691668 0.08960228 -0.022449076 0.073838934 0.050227717 0.0067967623 0.115341485
0.035509348 0.07815516 -0.09461233 0.037645593 -0.115136266 0.020887226 0.033606112 0.07414715
0.066485 -0.05570014 0.07432857 -0.124733225 0.1039999 0.060052633 -0.019188598 0.036723256
0.068883896 -0.10024558 0.0811272 0.037311524 0.12165734 0.0055068135 0.012482017 0.02874577
0.10110076 -0.10412094 0.06911439 0.07194218 -0.01007846 -0.084986016 0.09651737 0.076063424
-0.028964087 0.021722168 -0.038281053 -0.056328386 0.124167055 0.050313517 0.007956669 0.079459995
0.08364907 0.066878036 0.05564548 -0.09349394 -0.050066546 0.1039004 0.038037762 0.034342542

9.weight f4 [1, 64]
00000000: dad6 a7bd 64c9 74bd 7834 40bd 78d5 733d
00000010: 1ccd 4dbd 3cb3 c33d b6a1 b5bd 58e1 afbc
00000020: 5853 d93d 60df 56bd 00e2 123b 3470 16bd
00000030: 20b6 343d 842a 81bd 646f c1bd d0b4 40bd
00000040: fc7d 4e3d acc3 04bd e251 c4bd 08af d5bc
00000050: fc68 5fbd b2d3 d43d 98db 94bc e833 633d
00000060: 4a32 f63d 3e3b b3bd 1ca2 443d 184f 8b3c
00000070: 28ee d83d c04d 7d3b b42c 163d ac9b fabd
00000080: ee8c f53d 4a72 c2bd 5ac0 bd3d 2a36 a7bd
00000090: 78a1 db3c 8062 bc3a a630 bf3d c45b eebd
000000a0: 4059 d63d 564b f83d 18a1 143d 0e94 ec3d
000000b0: 90cf ce3d 2070 c73b 2067 903d 30c3 0c3c
000000c0: 60a1 fa3c b8ad b1bd 5c91 0abd aa59 8bbd
000000d0: 60b4 96bd 1811 a3bd 6c67 5abd 109b b23c
000000e0: 40a1 75bb b86f 663d 981b 603d 8cc8 0fbd
000000f0: 0a92 b43d 7a1b b2bd 9c06 91bd c8d2 f73d
-0.081952766 -0.059762374 -0.046925038 0.05952975 -0.050244436 0.095556706 -0.088687345 -0.021469757
0.106116 -0.05245912 0.0022412539 -0.0367281 0.044119 -0.06306937 -0.09445074 -0.047047436
0.050413117 -0.03241317 -0.095859304 -0.026084438 -0.05454348 0.1039194 -0.018171117 0.055469424
0.120213106 -0.08751534 0.048006162 0.017005488 0.105923 0.003865108 0.036663726 -0.12236723
0.11989771 -0.09494455 0.09265204 -0.08164628 0.026810393 0.0014372617 0.09335451 -0.11638597
0.10466242 0.12123744 0.036286443 0.11551677 0.10098183 0.0060863644 0.070509195 0.008591458
0.030594528 -0.08675712 -0.03383003 -0.068042114 -0.073586226 -0.07962245 -0.053321287 0.021802455
-0.0037480146 0.056258887 0.054713815 -0.035103366 0.08816917 -0.08696647 -0.07081339 0.1210075
